model/mlp.pth (torch, 19680 bytes, 5 tensors)

net.0.weight f4 [64, 1]
-0.14679198 0.20807122 0.043443676 0.61384153 0.44277582 0.67702067 -0.07525804 -0.3510399
-0.3666705 -0.6481506 0.7916433 0.5774165 0.4976944 0.48345137 0.35379595 -0.24417871
0.5685229 -0.28697744 0.5710783 0.63332105 -0.46481618 -0.25762475 -0.11895421 -0.75595576
-0.40482423 0.7289014 0.005741954 -0.62854576 -0.4239727 -0.5588821 0.30614045 0.25224814
-0.46055192 0.27310675 -0.25886872 0.1046431 -0.519011 0.6598397 0.37062037 0.2964215
-0.77996427 0.78767437 0.75169677 -0.23225601 0.23416439 0.23556544 0.14925995 -0.70099545
0.9109939 -0.0048441887 0.19546312 0.48201326 -0.33260745 0.49324346 0.07862532 0.5105037
0.9441049 0.47924918 -0.58988935 0.009844669 0.61094177 -0.8789968 -0.2534959 -0.6665535
00000000: a350 16be 9f10 553e fff1 313d b824 1d3f
00000010: 83b3 e23e 3a51 2d3f e320 9abd 80bb b3be
00000020: 3cbc bbbe 33ed 25bf 23a9 4a3f 91d1 133f
00000030: cdd1 fe3e f086 f73e be24 b53e fc09 7abe
00000040: b78a 113f b5ee 92be 3032 123f 5421 223f
00000050: 63fc edbe 64e7 83be 449e f3bd 5186 41bf
00000060: 1f45 cfbe 4899 3a3f 0027 bc3b 60e8 20bf
00000070: f312 d9be e612 0fbf 71be 9c3e ab26 813e
00000080: 76cd ebbe a6d4 8b3e 718a 84be 1f4f d63d
00000090: e8dd 04bf 41eb 283f f4c1 bd3e 8fc4 973e
000000a0: bdab 47bf 07a5 493f 336f 403f 85d4 6dbe
000000b0: cac8 6f3e 1138 713e 9ad7 183e 7074 33bf
000000c0: e536 693f 00bc 9ebb 7c27 483e 71ca f63e
000000d0: 864b aabe 688a fc3e 5006 a13d 5fb0 023f
000000e0: dcb0 713f 2660 f53e fd02 17bf 894b 213c
000000f0: ae66 1c3f ef05 61bf 37ca 81be 40a3 2abf

net.0.bias f4 [64]
0.44158307 0.85520136 0.21190907 -0.6956388 0.38856608 -1.1399549 0.97949654 -1.1211542
1.1914272 -0.9729801 -1.2227614 -0.7318167 -0.5049078 -0.8339948 -0.36871797 0.80660814
-0.5026326 0.1526066 -0.8156968 -0.036780443 -0.95239425 0.82180846 1.3168505 0.60967314
-1.1865492 0.36475024 -0.9008771 -0.84132075 1.0122164 -0.82846457 0.57578355 1.0174724
-1.0035863 -0.29440978 -0.88185465 0.9342569 -0.22381422 -0.23002334 -0.73339564 0.771068
-0.9014875 -0.59970206 -0.120766416 0.9776065 0.24055317 0.95881164 0.39977187 -0.26493126
-0.99426144 -0.69940245 -0.6529867 -0.9277238 0.3117665 -1.4816209 -0.772576 -0.90424633
-0.23570816 -0.44630238 -0.5983646 1.249415 1.4111422 -1.1739293 0.5618032 0.41474852
00000000: 2d17 e23e 7aee 5a3f b1fe 583e 6215 32bf
00000010: 22f2 c63e 0bea 91bf 49c0 7a3f fb81 8fbf
00000020: b080 983f 3915 79bf 7283 9cbf 5758 3bbf
00000030: a341 01bf af80 55bf 9ac8 bcbe df7d 4e3f
00000040: 88ac 00bf e844 1c3e 81d1 50bf 17a7 16bd
00000050: 1cd0 73bf 0a62 523f 8f8e a83f 8a13 1c3f
00000060: d8e0 97bf 8bc0 ba3e e29f 66bf cc60 57bf
00000070: 4f90 813f 4116 54bf 8d66 133f 893c 823f
00000080: 8475 80bf e1bc 96be 3ac1 61bf 762b 6f3f
00000090: 8e2f 65be 3d8b 6bbe d1bf 3bbf b664 453f
000000a0: e3c7 66bf 1386 19bf 6254 f7bd 6b44 7a3f
000000b0: 9253 763e ae74 753f e6ae cc3e 12a5 87be
000000c0: eb87 7ebf 0a0c 33bf 232a 27bf 4f7f 6dbf
000000d0: dc9f 9f3e c1a5 bdbf 8ac7 45bf b07c 67bf
000000e0: 7b5d 71be bf81 e4be 6c2e 19bf d5ec 9f3f
000000f0: 4fa0 b43f 5143 96bf 56d2 0f3f eb59 d43e

net.2.weight f4 [64, 64]
-0.115342125 0.034322623 0.10588519 -0.00377618 -0.06019742 0.039032985 0.07699921 -0.04798556
0.05971163 -0.05691436 -0.0206252 -0.13560174 -0.14514756 0.036661323 -0.09158024 -0.030456321
-0.02522938 -0.04609114 0.08048168 -0.04408375 0.0068710423 -0.006340959 -0.053008895 -0.16001478
-0.11894738 0.020174762 0.11376944 -0.18028463 -0.045575757 -0.037205063 0.093207546 -0.027069744
-0.15502079 0.0051317886 -0.0663182 0.059931178 -0.07627559 -0.059034538 0.050978452 -0.072930574
-0.0008964937 -0.14597417 0.015636535 0.061289527 -0.023445748 -0.06046904 0.030450962 -0.1772998
-0.12038855 -0.11403781 -0.104326755 0.05163046 -0.01787127 -0.15174545 0.03178151 -0.12922797
-0.012596017 -0.121851236 -0.01014115 -0.036519784 0.061066926 -0.035406943 0.083481334 0.0053210184
0.021814749 -0.15816607 -0.010182857 0.036052044 -0.09310345 -0.14925633 -0.06414402 -0.015331417
-0.10757083 0.08949408 -0.13244876 -0.105777755 0.059503447 0.026933031 0.048608508 -0.12888214
-0.1738587 -0.15329936 0.049037147 -0.10928746 -0.107088506 0.025461152 -0.052436117 -0.116916366
0.051845014 -0.03363544 0.06302759 -0.078029856 -0.12673725 -0.11760231 -0.18488346 0.014934718
0.012068793 -0.014702755 -0.04878466 0.024609668 -0.16469018 -0.06954239 0.0318136 0.03616851
-0.005355373 -0.04824553 -0.039895948 -0.058161832 0.02691833 0.029730903 -0.17864344 -0.14072654
-0.14504105 -0.045038 0.044637162 -0.12576409 -0.1268142 -0.08435559 -0.067945495 0.049855083
-0.16775185 -0.1533751 -0.12828891 -0.12371432 -0.09529353 -0.0021599657 -0.04377268 -0.06369823
0.12969457 0.04903736 0.0223438 -0.18767804 0.28240758 -0.038901724 0.25152037 -0.48946112
0.09815357 0.020438096 -0.09587937 -0.053006425 -0.025804866 -0.15138307 -0.25439548 0.061401572
0.014082337 -0.071874775 -0.074743256 0.10848204 -0.06496463 -0.049529042 0.19053106 0.039801233
-0.24546364 -0.010745927 -0.0526651 0.032003406 0.09896299 -0.03984421 0.30564043 0.24939646
-0.1413248 -0.0250339 -0.14300136 0.353623 -0.08497626 0.010021263 -0.18084034 -0.025084777
-0.16883142 0.0063666934 0.0071901297 -0.09567823 0.13790141 -0.03316402 0.20229608 -0.039504874
-0.16469193 -0.037316546 -0.53918153 -0.21263869 -0.050084416 -0.6921657 -0.08989559 -0.27406862
-0.01704023 -0.03383312 -0.12780543 0.22697246 0.08020516 0.06910255 -0.06408483 -0.017409666
-0.029106708 0.013302781 -0.011930944 -0.05511148 0.002144836 -0.036702797 0.05135784 -0.021136248
0.030905249 -0.09198532 -0.15187025 -0.1113034 -0.1543815 -0.13459837 -0.019230284 -0.119801715
0.07481382 0.039147332 -0.16768731 -0.13775128 0.011296209 -0.07414489 0.020996386 -0.0036395553
0.02587907 -0.05455246 -0.06543334 -0.1674564 -0.17922512 -0.10486404 0.04199151 -0.081001244
-0.092302665 0.068092264 -0.14375217 -0.040381532 0.0022021448 -0.051954627 -0.1009595 0.06754657
-0.0384708 -0.03820084 0.06312498 -0.07108163 0.0022654526 0.00893696 0.027023785 0.06013204
-0.1592875 -0.060089126 0.096571304 -0.08400923 -0.08402318 -0.006277234 0.11306761 -0.046194997
0.022076387 -0.021792976 -0.09842197 -0.16346103 0.07606586 -0.118855566 -0.006728829 -0.13989498
00000000: 7e38 ecbd e195 0c3d 56da d83d ca79 77bb
00000010: 9291 76bd 0de1 1f3d c3b1 9d3d 828c 44bd
00000020: 2f94 743d 081f 69bd 2ef6 a8bc 2fdb 0abe
00000030: 90a1 14be 2f2a 163d 6c8e bbbd 897f f9bc
00000040: d8ad cebc 10ca 3cbd 94d3 a43d 2a91 34bd
00000050: 7b26 e13b d2c7 cfbb db1f 59bd eada 23be
00000060: af9a f3bd 8b45 a53c f4ff e83d 899c 38be
00000070: a5ad 3abd 5664 18bd 99e3 be3d 5ec1 ddbc
00000080: c5bd 1ebe 9028 a83b d6d1 87bd 657a 753d
00000090: 6036 9cbd 33ce 71bd c8ce 503d a05c 95bd
000000a0: ac02 6bba 417a 15be 3118 803c ba0a 7b3d
000000b0: 4c11 c0bc 62ae 77bd 4c74 f93c 148e 35be
000000c0: 468e f6bd a88c e9bd 44a9 d5bd 767a 533d
000000d0: c566 92bc 2963 1bbe 542d 023d 5654 04be
000000e0: 865f 4ebc 248d f9bd 1127 26bc c595 15bd
000000f0: 5021 7a3d df06 11bd 43f8 aa3d f05b ae3b
00000100: d8b4 b23c 49f6 21be ffd5 26bc 4fab 133d
00000110: 06ad bebd a7d6 18be f15d 83bd a030 7bbc
00000120: 184e dcbd ac48 b73d a6a0 07be 02a2 d8bd
00000130: e3b9 733d a9a2 dc3c b719 473d aef9 03be
00000140: 0408 32be 82fa 1cbe 2ddb 483d 1bd2 dfbd
00000150: 3851 dbbd e893 d03c 41c7 56bd d971 efbd
00000160: 705b 543d 51c5 09bd 9c14 813d 1ece 9fbd
00000170: 69c7 01be 7bd9 f0bd 1752 3dbe bfb0 743c
00000180: 30bc 453c d3e3 70bc 6cd2 47bd 379a c93c
00000190: 8ba4 28be 3e6c 8ebd fa4e 023d 6e25 143d
000001a0: 207c afbb 1b9d 45bd ef69 23bd 1a3b 6ebd
000001b0: d483 dc3c 398e f33c 4eee 36be 9e1a 10be
000001c0: a485 14be c479 38bd 75d5 363d 4dc8 00be
000001d0: 95db 01be a0c2 acbd 0227 8bbd d834 4c3d
000001e0: 24c7 2bbe 5d0e 1dbe 2b5e 03be ef5d fdbd
000001f0: 4129 c3bd 368e 0dbb fb4a 33bd 3874 82bd
00000200: a7ce 043e 66db 483d 580a b73c ac2e 40be
00000210: ba97 903e 6a57 1fbd 47c7 803e a69a fabe
00000220: bd04 c93d cb6d a73c 675c c4bd 441d 59bd
00000230: ba64 d3bc 2a04 1bbe 2040 82be 3780 7b3d
00000240: 9ab9 663c 1533 93bd fe12 99bd d52b de3d
00000250: 2d0c 85bd f7de 4abd 931a 433e 9e06 233d
00000260: d25a 7bbe af0f 30bc 5cb7 57bd 0116 033d
00000270: 1cad ca3d af33 23bd e77c 9c3e c961 7f3e
00000280: 73b7 10be e513 cdbc f36e 12be 130e b53e
00000290: 0908 aebd 3930 243c 362e 39be 977e cdbc
000002a0: 25e2 2cbe b29f d03b 2e9b eb3b f3f2 c3bd
000002b0: 0736 0d3e ffd6 07bd b426 4f3e ddcf 21bd
000002c0: 00a5 28be 3cd9 18bd cd07 0abf f5bd 59be
000002d0: 5125 4dbd c531 31bf 2e1b b8bd b952 8cbe
000002e0: f497 8bbc 9994 0abd 6ddf 02be 786b 683e
000002f0: 9a42 a43d a385 8d3d e83e 83bd b79e 8ebc
00000300: 3171 eebc e8f3 593c 027a 43bc 93bc 61bd
00000310: 6090 0c3b ac55 16bd 995c 523d ed25 adbc
00000320: 012d fd3c cd62 bcbd e083 1bbe 09f3 e3bd
00000330: 2f16 1ebe 28d4 09be d488 9dbc 9a5a f5bd
00000340: fd37 993d f458 203d 39b6 2bbe ac0e 0dbe
00000350: bc13 393c 47d9 97bd 9d00 ac3c 9b85 6ebb
00000360: 5800 d43c 6672 5fbd ea01 86bd b179 2bbe
00000370: ca86 37be f5c2 d6bd 4aff 2b3d fbe3 a5bd
00000380: 2e09 bdbd f573 8b3d c533 13be 1b67 25bd
00000390: dc51 103b 60ce 54bd dbc3 cebd db55 8a3d
000003a0: 8f93 1dbd 7c78 1cbd ab47 813d 3f93 91bd
000003b0: fd77 143b 546c 123c fc60 dd3c 044d 763d
000003c0: 431c 23be 0420 76bd 2dc7 c53d 080d acbd
000003d0: 5814 acbd 41b1 cdbb fe8f e73d f736 3dbd
000003e0: 8ad9 b43c 2f87 b2bc 7591 c9bd 5462 27be
000003f0: 6bc8 9b3d 8c6a f3bd 827d dcbb a140 0fbe

net.2.bias f4 [64]
0.049239777 -0.018148443 0.35125157 -0.06713849 -0.05485381 -0.15233187 -0.094972886 0.02164566
0.14505355 0.086651824 -0.05563828 -0.09837989 0.092692755 -0.08704483 -0.09142721 -0.07088855
0.0028494892 -0.22971557 0.11599302 0.031822704 0.020273792 -0.026153894 -0.013327984 -0.012253569
0.006600522 -0.012190705 0.1435215 -0.07653187 0.13109876 0.03371644 0.012689752 -0.17394811
0.051244184 0.09341067 0.20692909 0.17499472 -0.020229077 -0.10188735 -0.11284814 0.31423584
0.06369485 0.39082503 -0.11881436 -0.1284961 0.01897886 -0.12473294 -0.17152435 -0.22478108
0.07446292 -0.45396382 -0.144845 -0.17204927 0.0053735087 -0.19091475 -0.16898535 0.027778154
-0.058736067 0.15589604 0.13864987 -0.06784452 0.020604238 -0.18158826 -0.09473111 0.3100999
00000000: a6af 493d 0bac 94bc 3fd7 b33e e87f 89bd
00000010: 64ae 60bd e3fc 1bbe 2581 c2bd 3d52 b13c
00000020: eb88 143e 8376 b13d f7e4 63bd 657b c9bd
00000030: b3d5 bd3d 8f44 b2bd 303e bbbd 042e 91bd
00000040: 7fbe 3a3b 8f3a 6bbe c08d ed3d 8658 023d
00000050: 3915 a63c b140 d6bc 9e5d 5abc 32c3 48bc
00000060: 3149 d83b 86bb 47bc 4df7 123e bebc 9cbd
00000070: c13e 063e 401a 0a3d ade8 4f3c 741f 32be
00000080: 6ce5 513d 184e bf3d 38e5 533e d131 333e
00000090: 73b7 a5bc 51aa d0bd ed1c e7bd 85e3 a03e
000000a0: 7272 823d 381a c83e f154 f3bd 7b94 03be
000000b0: 8e79 9b3c fc73 ffbd 14a4 2fbe 032d 66be
000000c0: 0480 983d f26d e8be 3f52 14be af2d 30be
000000d0: 4214 b03b 287f 43be 7f0a 2dbe 038f e33c
000000e0: 3b95 70bd 36a3 1f3e 3bfa 0d3e 11f2 8abd
000000f0: 38ca a83c 46f2 39be 6202 c2bd 6ac5 9e3e

net.4.weight f4 [1, 64]
4.3094184e-05 -0.005903383 -0.17821336 -0.00770215 0.013013006 0.012307518 0.024801021 0.0564422
-0.078719705 -0.059999578 -0.006173537 0.02670649 -0.04742057 0.03077958 0.047138363 -0.03057161
0.009769949 0.039597653 -0.051262826 -0.006605967 -0.047311705 -0.00013635712 0.060128123 -0.0591733
-0.050497286 0.08681205 -0.1145832 0.005733803 0.077201635 0.044877976 0.022759026 0.033930223
-0.08819898 -0.06341781 -0.41217026 -0.10609749 0.03951548 0.11486206 0.002834203 -0.16781004
0.046908215 0.39483428 0.023012059 0.049124546 0.015729122 0.056963865 -0.010231445 0.10835073
-0.025758013 0.16349055 -0.012538401 0.08150974 0.0032879622 0.035823207 -0.007935099 0.034739774
0.083289616 -0.03164662 0.005875575 0.0060708188 0.112005666 0.012373802 0.024701744 -0.25049537
00000000: 07c0 3438 2a71 c1bb 907d 36be 5162 fcbb
00000010: 8134 553c 79a5 493c 832b cb3c f02f 673d
00000020: cc37 a1bd 1ec2 75bd 624b cabb 92c7 da3c
00000030: 123c 42bd 7525 fc3c 2814 413d 5071 fabc
00000040: 2312 203c 2631 223d f8f8 51bd de76 d8bb
00000050: ebc9 41bd 16fb 0eb9 e848 763d b45f 72bd
00000060: 3ed6 4ebd 84ca b13d 99aa eabd a0e2 bb3b
00000070: e41b 9e3d f8d1 373d 2371 ba3c 6bfa 0a3d
00000080: aba1 b4bd 32e1 81bd fb07 d3be a449 d9bd
00000090: fcda 213d cd3c eb3d 09be 393b 65d6 2bbe
000000a0: d422 403d b827 ca3e c983 bc3c d236 493d
000000b0: 5cda 803c f152 693d caa1 27bc fde6 dd3d
000000c0: 7802 d3bc 116a 273e de6d 4dbc 94ee a63d
000000d0: da7a 573b 5bbb 123d 3802 02bc 4b4b 0e3d
000000e0: bf93 aa3d e39f 01bd e587 c03b b8ed c63b
000000f0: 3a63 e53d 7dbb 4a3c 505b ca3c ee40 80be
